…
ttps://localhost:8080/"},"id":"pLZdklKKrZZy","executionInfo":{"status":"ok","timestamp":1653301020424,"user_tz":-360,"elapsed":484,"user":{"displayName":"fahim sifat","userId":"09905140434680475493"}},"outputId":"e342fbc5-2374-47cb-9bc3-10f8f9458961"},"execution_count":30,"outputs":[{"output_type":"stream","name":"stdout","text":["Model: \"sequential_2\"\n","_________________________________________________________________\n"," Layer (type)                Output Shape              Param #   \n","=================================================================\n"," conv2d_6 (Conv2D)           (None, 254, 254, 64)      1792      \n","                                                                 \n"," max_pooling2d_6 (MaxPooling  (None, 127, 127, 64)     0         \n"," 2D)                                                             \n","                                                                 \n"," conv2d_7 (Conv2D)           (None, 125, 125, 128)     73856     \n","                                                                 \n"," max_pooling2d_7 (MaxPooling  (None, 62, 62, 128)      0         \n"," 2D)                                                             \n","                                                                 \n"," conv2d_8 (Conv2D)           (None, 60, 60, 128)       147584    \n","                                                                 \n"," max_pooling2d_8 (MaxPooling  (None, 30, 30, 128)      0         \n"," 2D)                                                             \n","                                                                 \n"," flatten_2 (Flatten)         (None, 115200)            0         \n","                                                                 \n"," dense_4 (Dense)             (None, 512)               58982912  \n","                                                                 \n"," dense_5 (Dense)             (None, 1)                 513       \n","                                                                 \n","=================================================================\n","Total params: 59,206,657\n","Trainable params: 59,206,657\n","Non-trainable params: 0\n","_________________________________________________________________\n"]},{"output_type":"stream","name":"stderr","text":["/usr/local/lib/python3.7/dist-packages
…
