…
ps://localhost:8080/"},"id":"pLZdklKKrZZy","executionInfo":{"status":"ok","timestamp":1653207529759,"user_tz":-360,"elapsed":416,"user":{"displayName":"fahim sifat","userId":"09905140434680475493"}},"outputId":"88c9f5ab-6460-4a4f-b017-030fb1945e45"},"execution_count":null,"outputs":[{"output_type":"stream","name":"stdout","text":["Model: \"sequential_1\"\n","_________________________________________________________________\n"," Layer (type)                Output Shape              Param #   \n","=================================================================\n"," conv2d_17 (Conv2D)          (None, 148, 148, 16)      448       \n","                                                                 \n"," max_pooling2d_21 (MaxPoolin  (None, 74, 74, 16)       0         \n"," g2D)                                                            \n","                                                                 \n"," conv2d_18 (Conv2D)          (None, 72, 72, 32)        4640      \n","                                                                 \n"," max_pooling2d_22 (MaxPoolin  (None, 36, 36, 32)       0         \n"," g2D)                                                            \n","                                                                 \n"," conv2d_19 (Conv2D)          (None, 34, 34, 64)        18496     \n","                                                                 \n"," max_pooling2d_23 (MaxPoolin  (None, 17, 17, 64)       0         \n"," g2D)                                                            \n","                                                                 \n"," flatten_7 (Flatten)         (None, 18496)             0         \n","                                                                 \n"," dense_14 (Dense)            (None, 512)               9470464   \n","                                                                 \n"," dense_15 (Dense)            (None, 1)                 513       \n","                                                                 \n","=================================================================\n","Total params: 9,494,561\n","Trainable params: 9,494,561\n","Non-trainable params: 0\n","_________________________________________________________________\n"]},{"output_type":"stream","name":"stderr","text":["/usr/local/lib/python3.7/dist-packages/k
…
